…
00:00<?, ?B/s]"],"application/vnd.jupyter.widget-view+json":{"version_major":2,"version_minor":0,"model_id":"31f37cd81f7c42e9bd63a087b8fc6eb6"}},"metadata":{}},{"output_type":"display_data","data":{"text/plain":["config.json:   0%|          | 0.00/481 [00:00<?, ?B/s]"],"application/vnd.jupyter.widget-view+json":{"version_major":2,"version_minor":0,"model_id":"3cba9f8e5bcd40e9bc5d13aaaca8885f"}},"metadata":{}},{"output_type":"execute_result","data":{"text/plain":["RobertaForSequenceClassification(\n","  (roberta): RobertaModel(\n","    (embeddings): RobertaEmbeddings(\n","      (word_embeddings): Embedding(50265, 768, padding_idx=1)\n","      (position_embeddings): Embedding(514, 768, padding_idx=1)\n","      (token_type_embeddings): Embedding(1, 768)\n","      (LayerNorm): LayerNorm((768,), eps=1e-05, elementwise_affine=True)\n","      (dropout): Dropout(p=0.1, inplace=False)\n","    )\n","    (encoder): RobertaEncoder(\n","      (layer): ModuleList(\n","        (0-11): 12 x RobertaLayer(\n","          (attention): RobertaAttention(\n","            (self): RobertaSdpaSelfAttention(\n","              (query): Linear(in_features=768, out_features=768, bias=True)\n","              (key): Linear(in_features=768, out_features=768, bias=True)\n","              (value): Linear(in_features=768, out_features=768, bias=True)\n","              (dropout): Dropout(p=0.1, inplace=False)\n","            )\n","            (output): RobertaSelfOutput(\n","              (dense): Linear(in_features=768, out_features=768, bias=True)\n","              (LayerNorm): LayerNorm((768,), eps=1e-05, elementwise_affine=True)\n","              (dropout): Dropout(p=0.1, inplace=False)\n","            )\n","          )\n","          (intermediate): RobertaIntermediate(\n","            (dense): Linear(in_features=768, out_features=3072, bias=True)\n","            (intermediate_act_fn): GELUActivation()\n","          )\n","          (output): RobertaOutput(\n","            (dense): Linear(in_features=3072, out_features=768, bias=True)\n","            (LayerNorm): LayerNorm((768,), eps=1e-05, elementwise_affine=True)\n","            (dropout): Dropout(p=0.1, inplace=False)\n","          )\n","        )\n","      )\n","    )\n","  )\n","  (classifier): RobertaClassificationHead(\n","    (dense): Linear(in_features=768, out_features=768, bias=True)\n","    (dropout): Dropout(p=0.1, inplace=False)\n","    (out_proj): Linear(in_features=768, out_features=20, bias=True)\n","  )\n",")"]},"metadata":{},"execution_count":13}]},{"cell_type":"code","source":["#`classify_test(text: str) -> Tuple[str]` На вход – строка, на выход – tuple предсказанных меток из mlb.classes_.\n","def classify_test(text: str):\n","    inputs = tokenizer(\n","        text,\n","        return_tensors=\"pt\",\n","        truncation=True,\n","       
…
